…
0.0, mosaic=1.0, mixup=0.0, copy_paste=0.0, auto_augment=randaugment, erasing=0.4, crop_fraction=1.0, cfg=None, tracker=botsort.yaml, prune_method=lamp, speed_up=2.0, global_pruning=True, max_sparsity=1.0, iterative_steps=200, reg=0.0005, delta_reg=0.0001, sl_epochs=500, sl_model=None, sl_hyp=ultralytics/cfg/hyp.scratch.sl.yaml, reg_decay_type=linear, reg_decay=0.1, reg_decay_step=10, save_dir=runs/prune/n-yolov8-nop234-gam-prune2

                   from  n    params  module                                       arguments                     
  0                  -1  1       928  ultralytics.nn.modules.conv.Conv             [3, 32, 3, 2]                 
  1                  -1  1     25760  ultralytics.nn.modules.conv.GAM_Attention    [32]                          
  2                  -1  1     18560  ultralytics.nn.modules.conv.Conv             [32, 64, 3, 2]                
  3                  -1  1     29056  ultralytics.nn.modules.block.C2f             [64, 64, 1, True]             
  4                  -1  1     73984  ultralytics.nn.modules.conv.Conv             [64, 128, 3, 2]               
  5                  -1  2    197632  ultralytics.nn.modules.block.C2f             [128, 128, 2, True]           
  6                  -1  1    295424  ultralytics.nn.modules.conv.Conv             [128, 256, 3, 2]              
  7                  -1  2    788480  ultralytics.nn.modules.block.C2f             [256, 256, 2, True]           
  8                  -1  1   1639680  ultralytics.nn.modules.conv.GAM_Attention    [256]                         
  9                  -1  1   1773056  ultralytics.nn.modules.conv.SPPFCSPC         [256, 256, 5]                 
 10                  -1  1         0  torch.nn.modules.upsampling.Upsample         [None, 2, 'nearest']          
 11             [-1, 4]  1         0  ultralytics.nn.modules.conv.Concat           [1]                           
 12                  -1  1    148224  ultralytics.nn.modules.block.C2f             [384, 128, 1]                 
 13                  -1  1         0  torch.nn.modules.upsampling.Upsample         [None, 2, 'nearest']          
 14             [-1, 2]  1         0  ultralytics.nn.modules.conv.Concat           [1]                           
 15                  -1  1     37248  ultralytics.nn.modules.block.C2f             [192, 64, 1]                  
 16                  -1  1     73984  ultralytics.nn.modules.conv.Conv             [64, 128, 3, 2]               
 17            [-1, 11]  1         0  ultralytics.nn.modules.conv.Concat           [1]                           
 18                  -1  1    164608  ultralytics.nn.modules.block.C2f             [512, 128, 1]                 
 19                  -1  1    295424  ultralytics.nn.modules.conv.Conv             [128, 256, 3, 2]              
 20             [-1, 8]  1         0  ultralytics.nn.modules.conv.Concat           [1]                           
 21                  -1  1    525824  ultralytics.nn.modules.block.C2f             [512, 256, 1]                 
 22        [14, 17, 20]  1   3952102  ultralytics.nn.modules.head.Detect           [50, [192, 512, 512]]         
YOLOv8s_GAM_smalltarget_noP5 summary: 244 layers, 10039974 parameters, 10039958 gradients, 102.7 GFLOPs

Transferred 391/391 items from pretrained weights
Freezing layer 'model.22.dfl.conv.weight'
[34m[1mtrain: [0mScanning /mnt/workspace/yolov10/datasets/tt100k_2021/labels/train.cache... 20594 images, 140 backgrounds, 0 corrupt: 100%|â–ˆâ–ˆâ–ˆâ–ˆâ–ˆâ–ˆâ–ˆâ–ˆâ–ˆâ–ˆ| 20594/20594 [00:00<?, ?it/s][0m[34m[1mtrain: [0mScanning /mnt/workspace/yolov10/datasets/tt100k_2021/labels/train.cache... 20594 images, 140 backgrounds, 0 corrupt: 100%|â–ˆâ–ˆâ–ˆâ–ˆâ–ˆâ–ˆâ–ˆâ–ˆâ–ˆâ–ˆ| 20594/20594 [00:00<?, ?it/s][0m
…
